AutogluonModels/ag-20260102_025950/models/NeuralNetFastAI/model-internals.pkl (torch, 207905 bytes, 16 tensors)

weight f4 [17]
0.32490742 0.6825751 0.9726991 0.3783186 1.057632 0.77900016 1.2052348 1.1971933
1.2623214 0.89772993 0.7568849 0.5566237 0.61750597 0.41447154 0.27037296 0.5758961
1.0729245
00000000: 445a a63e 3ebd 2e3f cf02 793f fab2 c13e
00000010: 7c60 873f 8e6c 473f 2245 9a3f a13d 993f
00000020: bf93 a13f a1d1 653f 35c3 413f e47e 0e3f
00000030: df14 1e3f 9d35 d43e 536e 8a3e ed6d 133f
00000040: 9755 893f

bias f4 [17]
-0.09588395 0.012532015 0.42036724 0.054188296 0.1514365 -0.069289066 -0.057026677 0.06523638
-0.024526527 0.13942863 0.050735626 -0.24638359 0.5557388 0.0713397 0.51572317 0.28757948
-0.14522249
00000000: ce5e c4bd 1553 4d3c 603a d73e 8cf4 5d3d
00000010: 2b12 1b3e 6de7 8dbd ce94 69bd a79a 853d
00000020: dbeb c8bc 61c6 0e3e 29d0 4f3d fb4b 7cbe
00000030: e644 0e3f 8c1a 923d 6f06 043f 9e3d 933e
00000040: 34b5 14be

running_mean f4 [17]
0.008122842 -0.014821899 0.015647862 -0.009306169 -0.009259043 0.014504501 -0.0043238993 0.0071389945
-0.029615324 0.0042456575 0.018043883 0.002975652 -0.011677513 0.0044488967 0.0047720256 0.021580486
0.009209828
00000000: ab15 053c 8dd7 72bc f22f 803c e778 18bc
00000010: 3eb3 17bc 49a4 6d3c 7faf 8dbb 3aee e93b
00000020: d69b f2bc 281f 8b3b c4d0 933c 2803 433b
00000030: 0a53 3fbc 0dc8 913b a75e 9c3b 8fc9 b03c
00000040: d2e4 163c

running_var f4 [17]
0.99229306 1.0048134 0.972546 0.98228216 0.96196103 1.0000644 0.94109756 0.9381562
0.99316394 1.0033777 1.0111823 1.0019771 0.36108112 1.0297774 1.1607494 1.0217841
0.9665307
00000000: eb06 7e3f ba9d 803f c6f8 783f d876 7b3f
00000010: 1443 763f 1c02 803f c5eb 703f 012b 703f
00000020: fe3f 7e3f ae6e 803f 6c6e 813f c940 803f
00000030: a0df b83e bfcf 833f 7093 943f d2c9 823f
00000040: 8e6e 773f

weight f4 [200, 17]
0.017598363 0.011183929 -0.17360644 -0.31009987 -0.14141512 -0.07811653 -0.10784986 0.6528915
0.037126645 0.007281176 -0.13031279 -0.13191873 -0.36759755 -0.037945136 -0.2128217 0.12593536
0.23072302 0.19688115 -0.06383357 -0.26822954 0.1327375 0.13860157 -0.09970358 0.2933439
0.0025291494 -0.04903583 0.4940366 -0.35389087 0.03612099 -0.34931213 -0.1307264 0.23094445
-0.09255474 0.056135923 -0.16095328 -0.25207034 -0.28104487 0.023801249 -0.03802 0.063700266
0.14412066 -0.10497434 0.1643424 -0.36076495 -0.2566805 0.10573413 0.14423116 0.12533998
0.054704234 0.1019566 0.5028869 0.31804693 0.050193384 0.06467698 0.17857945 -0.15668713
0.031931654 -0.30961433 -0.15646577 -0.49488664 0.22420996 0.09633527 -0.16381717 0.035061385
0.08952456 -0.05068846 0.08183688 0.08999889 0.050875913 0.34740037 -0.45797402 0.22088362
0.16268079 0.2506612 0.25138405 0.18439932 0.16750462 -0.30749547 -0.033535104 0.02500736
-0.6471399 0.08666785 -0.16278885 -0.3968772 0.11557957 0.052695148 -0.08656737 -0.27891317
-0.008505605 -0.07332673 0.028341766 -0.14654541 0.33957753 0.0222048 -0.391839 -0.28978586
-0.005275396 0.06503422 -0.09954167 -0.44501865 0.100993894 0.4373465 -0.2622857 -0.017154928
-0.26431575 0.034141067 -0.2783183 -0.27586478 -0.15438597 0.048061978 -0.09005631 0.31653157
-0.15253754 0.424245 0.070599854 0.033252954 -0.55757296 -0.083041914 0.22158341 0.092129536
0.051568843 0.08809217 -0.124959104 0.24761306 -0.48487422 -0.1463739 0.025057299 -0.1268049
-0.1761682 -0.4554943 0.020110942 -0.20588419 -0.10819157 -0.78029215 0.100908026 -0.05233144
0.011452913 0.23672277 0.0680856 -0.09592942 0.1061651 0.07837547 0.50395715 -0.15981452
-0.31870314 -0.19381994 0.14754938 -0.0057220543 0.123402074 -0.46349287 0.010368686 -0.24888985
-0.1649488 0.0116993515 0.28325862 -0.49994895 0.1374729 -0.13615362 0.11917111 -0.20499152
-0.06862271 -0.1896778 -0.34915525 -0.05385297 0.31363493 -0.6773861 -0.39409506 -0.09516112
-0.29700783 -0.122082725 0.066376984 -0.06521088 0.31005254 0.17840075 -0.67284626 0.22280747
0.17302103 -0.21393658 0.13128683 -0.043143973 0.03157805 -0.08990709 -0.07831928 0.030505061
0.12920997 0.02633007 -0.04462347 -0.0041910945 -0.28786606 0.21265073 0.09256873 0.16174664
-0.038933516 0.019393032 -0.34500206 -0.33162132 -0.2344569 0.20506293 -0.18151441 -0.12790206
-0.08086031 -0.03140785 -0.19107915 -0.30458286 -0.10692327 0.48121497 -0.3457888 0.22142538
0.1076369 0.055843595 -0.09587505 0.06891066 0.010412114 -0.07863357 -0.08640789 0.009035685
-0.7884716 -0.20917681 0.02258233 -0.58681726 0.08281001 -0.038580816 0.18616788 0.10012772
-0.05833462 0.08612728 -0.024744011 -0.051160824 -0.08564204 0.06645457 0.055812743 0.2446343
0.08568721 -0.24945071 -0.12057767 -0.8391856 0.16122802 -0.7000635 0.012055303 0.076321624
0.074255936 0.12751618 -0.08414985 0.06432129 0.4533624 -0.34753817 0.32930088 -0.13727103
0.02550877 0.006323175 -0.2146011 0.111966684 0.13515064 -0.02807876 0.077037975 -0.035612233
00000000: 712a 903c cc3c 373c e3c5 31be 69c5 9ebe
00000010: 20cf 10be 8ffb 9fbd 63e0 dcbd e623 273f
00000020: 1c12 183d ee96 ee3b b770 05be b415 07be
00000030: bf35 bcbe 5c6c 1bbd efed 59be 33f5 003e
00000040: a842 6c3e 369b 493e 2dbb 82bd 6255 89be
00000050: 57ec 073e 92ed 0d3e 6431 ccbd 2c31 963e
00000060: 16c0 253b cbd9 48bd 5ef2 fc3e 2f31 b5be
00000070: 9af3 133d 0ad9 b2be 24dd 05be b47c 6c3e
00000080: 578d bdbd c8ee 653d f0d0 24be 5d0f 81be
00000090: 1de5 8fbe d6fa c23c dcba 1bbd 4975 823d
000000a0: 5e94 133e c9fc d6bd 6049 283e 2fb6 b8be
000000b0: a06b 83be 238b d83d 55b1 133e 2059 003e
000000c0: 8c11 603d 9fce d03d 32bd 003f 0cd7 a23e
000000d0: 9497 4d3d 5d75 843d 88dd 363e 9772 20be
000000e0: c4ca 023d c585 9ebe 9038 20be c861 fdbe
000000f0: 4c97 653e 6d4b c53d b0bf 27be 879c 0f3d
00000100: a758 b73d b49e 4fbd 189a a73d 5751 b83d
00000110: 4363 503d 76de b13e 927b eabe 512f 623e
00000120: cb95 263e aa56 803e 69b5 803e 2dd3 3c3e
00000130: 5586 2b3e 0c70 9dbe 1b5c 09bd 3cdc cc3c
00000140: f6aa 25bf ea7e b13d 1fb2 26be 7d33 cbbe
00000150: fbb4 ec3d ded6 573d 3c4a b1bd b5cd 8ebe
00000160: 185b 0bbc 532c 96bd fe2c e83c 0010 16be
00000170: 1bdd ad3e d7e6 b53c 1f9f c8be d05e 94be
00000180: 3bdd acbb a930 853d 81dc cbbd 7cd9 e3be
00000190: e3d5 ce3d e1eb df3e 504a 86be 7e88 8cbc
000001a0: 6554 87be 81d7 0b3d bc7f 8ebe 263e 8dbe
000001b0: 5b17 1ebe a3dc 443d 716f b8bd 6d10 a23e
000001c0: cd32 1cbe a436 d93e a896 903d 4034 083d
000001d0: 1abd 0ebf e111 aabd c3e6 623e 69ae bc3d
000001e0: da39 533d ab69 b43d 8fea ffbd 478e 7d3e
000001f0: 6f41 f8be 0ae3 15be f744 cd3c 25d9 01be
00000200: 7065 34be 8d36 e9be b4bf a43c 4ed3 52be
00000210: 8b93 ddbd 3ac1 47bf dea8 ce3d 7e59 56bd
00000220: 00a5 3b3c 7467 723e 7770 8b3d a576 c4bd
00000230: 176d d93d 5283 a03d 5603 013f 6ba6 23be
00000240: 0f2d a3be bc78 46be 2f17 173e 1280 bbbb
00000250: 3aba fc3d f04e edbe 6ce1 293c fbdc 7ebe
00000260: 57e8 28be a3ae 3f3c 4607 913e 4ff9 ffbe
00000270: b2c5 0c3e db6b 0bbe fc0f f43d 4ce9 51be
00000280: 108a 8cbd e63a 42be 7ac4 b2be ef94 5cbd
00000290: c294 a03e 2d69 2dbf d4c6 c9be d5e3 c2bd
000002a0: 6911 98be 8206 fabd a8f0 873d 488d 85bd
000002b0: 35bf 9e3e b0ae 363e a73f 2cbf a427 643e
000002c0: 6d2c 313e 3112 5bbe 0e70 063e bcb7 30bd
000002d0: fc57 013d 3521 b8bd dc65 a0bd c0e5 f93c
000002e0: 9e4f 043e 29b2 d73c 1ac7 36bd 7355 89bb
000002f0: 2e63 93be 1dc1 593e ad94 bd3d e9a0 253e
00000300: c078 1fbd 23de 9e3c 1ca4 b0be 45ca a9be
00000310: 7815 70be 04fc 513e eade 39be c2f8 02be
00000320: 179a a5bd 85a5 00bd 41aa 43be 49f2 9bbe
00000330: 96fa dabd cf61 f63e 3b0b b1be 56bd 623e
00000340: bc70 dc3d 41bc 643d 235a c4bd 0821 8d3d
00000350: 9297 2a3c a30a a1bd 9ff6 b0bd 690a 143c
00000360: 46d9 49bf 7232 56be 94fe b83c a839 16bf
00000370: 4b98 a93d eb06 1ebd cba2 3e3e c30f cd3d
00000380: 48f0 6ebd 8063 b03d f4b3 cabc 038e 51bd
00000390: 1865 afbd 5519 883d e79b 643d 6a81 7a3e
000003a0: c77c af3d 0270 7fbe 6df1 f6bd ded4 56bf
000003b0: f518 253e 5d37 33bf 9b83 453c 834e 9c3d
000003c0: 7f13 983d 9a93 023e c256 acbd e1ba 833d
000003d0: 1e1f e83e 86f0 b1be 209a a83e c790 0cbe
000003e0: c5f7 d03c a332 cf3b 64c0 5bbe ca4e e53d
000003f0: ee64 0a3e 6d05 e6bc 16c6 9d3d 22de 11bd

weight f4 [200]
1.4805458 0.8459597 0.96905756 0.8399827 0.9910369 1.255824 1.1216655 1.1546297
1.0734532 1.2521584 1.0673838 0.89840186 1.2672485 0.985973 0.9542382 0.9087683
1.3158383 0.83482987 1.459246 0.82383925 1.0438758 1.1085058 0.81767714 0.9044469
0.69069535 1.1300548 0.97719 1.1094645 1.0328205 1.0397332 0.9360896 0.9628559
0.99207294 1.2083737 1.0973783 0.99337286 0.94545037 0.91192144 1.2036028 1.1047201
1.0416273 0.8963465 1.1048391 1.0971571 0.8724871 0.67798126 1.2228712 1.1172763
0.92716336 0.9504329 1.0843412 0.8522048 0.84854174 0.84095854 0.9526887 0.9674569
1.0125667 0.8864347 1.0624865 0.9429272 1.136806 0.9305386 1.0263535 0.92135555
0.8153313 1.3262796 1.1726545 0.97710115 0.9983263 1.043055 0.91310006 0.72696376
1.186079 1.0721573 1.0234145 1.0447104 0.9649639 1.0854484 1.0167438 1.0729024
1.1044687 1.0589627 1.082658 0.5665769 1.4472646 1.0077893 0.9419703 1.0033933
0.9349771 1.2645789 0.75130165 0.9641444 0.90707844 0.7168338 1.3097498 1.1384403
1.1271083 0.8695917 1.0183662 0.8309626 0.8727098 0.889682 0.94988036 0.9975203
1.0090069 0.95899695 1.1292331 0.9133434 0.8045377 1.1232562 0.9104488 1.0304981
0.9764075 0.86112845 1.0620942 0.90057033 1.0872343 0.71286327 1.256031 1.0199867
0.9925859 1.0718622 0.9116652 0.925754 1.1420629 0.93208265 0.9434405 0.8040811
0.97731864 0.8357572 0.97873706 0.9637388 1.0637052 0.72419643 0.99172175 1.1408296
0.73612624 1.0762123 0.91228247 1.0105234 1.0628175 0.6846394 1.1666936 1.056475
0.8937748 0.9581718 1.0139127 1.0305374 1.1379985 0.93455714 1.2751354 0.92033637
0.93048304 1.057147 1.099249 0.78335005 0.87158597 1.0352921 1.2454671 1.0630757
0.6516446 0.85211873 0.7683383 1.0922126 1.1162543 0.77409875 0.6610693 0.7713206
1.0946568 1.0915976 1.0624484 1.1435032 1.2569145 0.79916936 0.9776306 0.94266975
0.8337597 0.993103 0.9834743 1.2471737 0.87885875 1.0338647 1.0620327 1.2228347
1.091229 0.8577409 1.0124999 0.9165448 0.71618056 0.76504767 1.0068008 1.026084
1.3284091 0.8535216 1.0158726 0.9737613 0.773746 1.0840372 1.0552546 0.972607
00000000: 8682 bd3f d190 583f 2814 783f 1b09 573f
00000010: 98b4 7d3f d7be a03f bc92 8f3f e8ca 933f
00000020: ea66 893f ba46 a03f 08a0 883f aafd 653f
00000030: 3335 a23f ba68 7c3f f448 743f 0aa5 683f
00000040: 646d a83f 69b7 553f 93c8 ba3f 21e7 523f
00000050: b99d 853f 85e3 8d3f 4a53 513f d589 673f
00000060: 69d1 303f a3a5 903f 2029 7a3f ef02 8e3f
00000070: 7633 843f fa15 853f 91a3 6f3f b97d 763f
00000080: 7ef8 7d3f fdab 9a3f e476 8c3f af4d 7e3f
00000090: 0909 723f af73 693f a80f 9a3f 7867 8d3f
000000a0: 0b54 853f f776 653f 5e6b 8d3f a56f 8c3f
000000b0: 515b 5f3f 2e90 2d3f 0b87 9c3f e902 8f3f
000000c0: 945a 6d3f 924f 733f b1cb 8a3f 182a 5a3f
000000d0: 083a 593f 0f49 573f 68e3 733f 41ab 773f
000000e0: c99b 813f 62ed 623f 8fff 873f ad63 713f
000000f0: dc82 913f c737 6e3f 8d5f 833f f5dd 6b3f
00000100: 8db9 503f 88c3 a93f 8b19 963f 4d23 7a3f
00000110: 5092 7f3f d482 853f edc0 693f 4c1a 3a3f
00000120: 70d1 973f 733c 893f 3fff 823f 12b9 853f
00000130: e007 773f f9ef 8a3f a924 823f de54 893f
00000140: 3b5f 8d3f 178c 873f 8a94 8a3f 2f0b 113f
00000150: f73f b93f 3dff 803f f724 713f 316f 803f
00000160: a95a 6f3f b9dd a13f 4e55 403f 2bd2 763f
00000170: 4b36 683f 6b82 373f e2a5 a73f 69b8 913f
00000180: 1645 903f 909d 5e3f d359 823f f7b9 543f
00000190: e969 5f3f 33c2 633f 5c2b 733f 7e5d 7f3f
000001a0: 2327 813f d380 753f b68a 903f e0d0 693f
000001b0: 2ff6 4d3f dcc6 8f3f 2c13 693f 5de7 833f
000001c0: d8f5 793f ea72 5c3f b4f2 873f c78b 663f
000001d0: 7e2a 8b3f 357e 363f a0c5 a03f ed8e 823f
000001e0: 1c1a 7e3f c832 893f e462 693f 37fe 6c3f
000001f0: 1e2f 923f f89c 6e3f 5185 713f 42d8 4d3f
00000200: 8e31 7a3f 2ff4 553f 838e 7a3f 96b7 763f
00000210: 7e27 883f f064 393f 7ae1 7d3f b406 923f
00000220: c572 3c3f 53c1 893f 588b 693f d558 813f
00000230: 670a 883f 8744 2f3f 3756 953f 933a 873f
00000240: 6dce 643f bf4a 753f e4c7 813f a6e8 833f
00000250: efa9 913f 233f 6f3f a337 a33f 2a9b 6b3f
00000260: 2334 6e3f 9850 873f 31b4 8c3f a189 483f
00000270: 4220 5f3f 7484 843f 776b 9f3f dd12 883f
00000280: 2ed2 263f 7424 5a3f d2b1 443f 9fcd 8b3f
00000290: 6ce1 8e3f 562b 463f d63b 293f 4475 453f
000002a0: b71d 8c3f 78b9 8b3f 4ffe 873f 505e 923f
000002b0: 93e2 a03f 5d96 4c3f 0046 7a3f ce52 713f
000002c0: 4771 553f 003c 7e3f f9c4 7b3f 63a3 9f3f
000002d0: e3fc 603f ae55 843f b0f0 873f d985 9c3f
000002e0: 64ad 8b3f e894 5b3f 9999 813f aea2 6a3f
000002f0: 9c57 373f 2ada 433f d9de 803f b856 833f
00000300: 4f09 aa3f 6480 5a3f 1d08 823f 6c48 793f
00000310: 3814 463f bbc1 8a3f 9512 873f c6fc 783f

bias f4 [200]
0.28018668 0.014302638 -0.023720093 0.11570248 0.34158313 0.24764875 0.17218314 -0.18492897
0.005200981 0.29686862 0.09044148 0.09247421 -0.31038988 0.23843966 -0.02785136 0.16067706
-0.06174587 0.027217068 0.1199808 0.10974772 0.2813601 0.47516036 0.2655997 0.23420902
0.20494768 0.27472004 0.027707139 0.37964252 -0.109509446 0.18577667 0.3619218 0.085062236
-0.21188772 0.35892755 0.20024359 0.08880375 0.23198688 0.038338933 -0.15328628 0.11163
-0.024212679 0.044780143 0.19955759 0.37517866 -0.03139554 0.40023738 0.12859662 0.13439947
0.034332074 0.11689825 -0.04128809 0.32806748 0.53913826 0.25396267 0.052064642 0.22768345
0.042342752 0.04941447 0.020425206 0.6753615 0.00793247 0.09259731 0.38191321 0.090525135
0.34048343 0.25591084 -0.11211618 -0.048919763 0.23375359 0.5037734 0.099496 0.13544263
0.3641061 -0.072157934 -0.18475151 -0.041696414 -0.16691118 -0.04285789 -0.02004722 0.13850029
-0.07917211 0.32115906 -0.033278957 -0.18220241 -0.025101546 0.15500286 0.20231846 0.10994003
0.35074833 0.15703227 0.08801596 0.26544142 0.18850565 0.39728567 0.14367002 0.180275
-0.26879063 0.4720584 0.065817185 0.16471352 0.059573565 -0.09331177 0.19257192 0.13463861
0.21454793 0.019013477 0.28005806 -0.065319896 0.29644424 -0.041985568 -0.0389497 0.19398524
0.23084016 0.01922803 0.43871248 -0.19484624 -0.058543183 0.13249281 -0.13625269 -0.016729893
-0.074868396 0.19781856 -0.12735212 0.0384193 0.1614168 -0.008277425 0.19511896 0.1773311
-0.21694534 0.07793026 0.32442153 0.16339931 -0.07025915 -0.038582128 -0.08689268 0.2145531
-0.14766473 0.0709309 0.033531964 -0.0287353 -0.06306209 0.21919023 0.024174077 0.20944034
-0.30058274 0.09602443 0.0815816 0.22593285 0.09969588 0.30479515 0.15574037 0.4062533
0.26403865 0.25688258 -0.18323302 0.24461615 0.23709096 0.37368992 0.46110025 0.023001513
-0.06808057 0.2815603 0.19568513 0.11517399 0.16079183 0.09296545 -0.14258827 -0.12884824
0.027673103 0.22493045 0.098985896 -0.019081183 0.14911906 -0.1566354 0.19367418 -0.06587709
0.03846786 0.24272355 -0.08683973 0.26112434 0.027733035 -0.25125706 -0.11498516 -0.08279543
0.14749567 -0.19915678 0.28550196 -0.043242786 -0.05032614 -0.150698 -0.021348776 -0.09608166
0.2651398 0.36077785 0.14889613 0.394857 0.063868016 -0.12223157 -0.046953976 0.0099781
00000000: a174 8f3e 9d55 6a3c a450 c2bc 6cf5 ec3d
00000010: fce3 ae3e a297 7d3e c750 303e 055e 3dbe
00000020: fe6c aa3b 2aff 973e 6239 b93d 1e63 bd3d
00000030: 6ceb 9ebe 8729 743e 8928 e4bc 8788 243e
00000040: 3de9 7cbd 54f6 de3c 7eb8 f53d 6ac3 e03d
00000050: 6e0e 903e 3848 f33e affc 873e 7dd4 6f3e
00000060: cedd 513e 1ba8 8c3e 15fa e23c 8160 c23e
00000070: 7d46 e0bd 3d3c 3e3e d04d b93e 1c35 ae3d
00000080: 18f9 58be 5ac5 b73e a80c 4d3e bede b53d
00000090: f88d 6d3e 4909 1d3d 14f7 1cbe 459e e43d
000000a0: ab59 c6bc 626b 373d d358 4c3e 6b17 c03e
000000b0: 9c98 00bd eaeb cc3e d5ae 033e 04a0 093e
000000c0: ca9f 0c3d 5a68 ef3d b31d 29bd 76f8 a73e
000000d0: f704 0a3f 6507 823e bc41 553d da25 693e
000000e0: 986f 2d3d d466 4a3d c352 a73c 7ee4 2c3f
000000f0: 31f7 013c a9a3 bd3d 218a c33e 3e65 b93d
00000100: d853 ae3e bf06 833e 2b9d e5bd 1760 48bd
00000110: 1a5d 6f3e 4bf7 003f 8fc4 cb3d 79b1 0a3e
00000120: 1d6c ba3e 8ac7 93bd 802f 3dbe dcc9 2abd
00000130: c4ea 2abe c18b 2fbd 113a a4bc 05d3 0d3e
00000140: fd24 a2bd f66e a43e 844f 08bd 4593 3abe
00000150: c2a1 cdbc 12b9 1e3e 922c 4f3e 3d28 e13d
00000160: 4995 b33e 11cd 203e b641 b43d f0e7 873e
00000170: a007 413e 0769 cb3e 3c1e 133e 029a 383e
00000180: ed9e 89be a3b1 f13e 29cb 863d a9aa 283e
00000190: 6903 743d 3e1a bfbd 9331 453e b4de 093e
000001a0: 74b2 5b3e 27c2 9b3c c563 8f3e 70c6 85bd
000001b0: 8ac7 973e 0ff9 2bbd b889 1fbd 11a4 463e
000001c0: 5d61 6c3e 1a84 9d3c ec9e e03e c685 47be
000001d0: faca 6fbd 32ac 073e d385 0bbe 210d 89bc
000001e0: 9a54 99bd f390 4a3e 9868 02be 8e5d 1d3d
000001f0: 724a 253e 099e 07bc 44cd 473e 4996 353e
00000200: eb26 5ebe e699 9f3d 941a a63e 2652 273e
00000210: 07e4 8fbd 4b08 1ebd caf4 b1bd cfb3 5b3e
00000220: 6c35 17be 3844 913d d058 093d 4b66 ebbc
00000230: b226 81bd 6773 603e b708 c63c 8777 563e
00000240: fbe5 99be 75a8 c43d 4114 a73d f15a 673e
00000250: 5b2d cc3d 1c0e 9c3e 677a 1f3e 6f00 d03e
00000260: 1330 873e 1d86 833e 70a1 3bbe a87c 7a3e
00000270: f9c7 723e 4954 bf3e 5515 ec3e ab6d bc3c
00000280: d36d 8bbd ac28 903e af61 483e 57e0 eb3d
00000290: 9da6 243e ab64 be3d a902 12be cbf0 03be
000002a0: b4b2 e23c 2b54 663e 1eb9 ca3d 2450 9cbc
000002b0: abb2 183e 0865 20be 8652 463e 91ea 86bd
000002c0: 7a90 1d3d 868c 783e 07d9 b1bd 17b2 853e
000002d0: 6430 e33c c4a4 80be 577d ebbd a790 a9bd
000002e0: 1b09 173e c1ef 4bbe 502d 923e 591f 31bd
000002f0: c822 4ebd 9450 1abe a1e3 aebc 76c6 c4bd
00000300: 67c0 873e e0b7 b83e 3a78 183e b22a ca3e
00000310: 3ccd 823d 8c54 fabd d052 40bd 2f7b 233c

running_mean f4 [200]
0.19968756 0.20583329 0.1726266 0.33995557 0.01780043 0.105902344 0.08521127 0.15391983
0.3680309 0.06940648 0.26720738 0.2962693 0.021474395 0.102828674 0.3318992 0.2928726
0.045767926 0.31196386 0.20356059 0.43816644 0.25484338 0.16066962 0.507946 0.22231892
0.09348448 0.047930643 0.2365449 0.13245237 0.22264226 0.293135 0.34280154 0.2965303
0.26388374 0.39066827 0.055168964 0.23400265 0.29782006 0.2729037 0.07447173 0.4312104
0.09449127 0.28071535 0.41522855 0.4508527 0.14527729 0.26899123 0.04047475 0.11377597
0.32127783 0.28881708 0.29056066 0.19283056 0.22131701 0.13307664 0.3000164 0.12009283
0.42360118 0.07890102 0.16944982 0.1591282 0.19806083 0.2134471 0.457749 0.1612179
0.2415484 0.040279925 0.17821182 0.3490444 0.27928898 0.13271995 0.2106533 0.28304455
0.12219717 0.19178413 0.11881903 0.08487561 0.1555722 0.115108274 0.10197838 0.25631836
0.19495867 0.4130751 0.30577698 0.15466467 0.015009092 0.037613865 0.3735659 0.08538871
0.13203003 0.05826288 0.40408245 0.10877323 0.07140853 0.24120945 0.07147847 0.31499308
0.068251945 0.052037906 0.1376948 0.08435247 0.3629967 0.16928561 0.44417173 0.067272216
0.30198744 0.15285584 0.30823982 0.29162666 0.27472857 0.4423048 0.20372888 0.18567517
0.19835462 0.26954594 0.2100925 0.19763598 0.24373391 0.08513144 0.04648755 0.19637711
0.29944173 0.036808576 0.27953458 0.23380004 0.19494267 0.15156241 0.31855595 0.21043283
0.17932414 0.27317995 0.2716815 0.2105647 0.26920968 0.28344044 0.30197024 0.11443433
0.2588419 0.14260978 0.31539094 0.08793046 0.10691087 0.12228727 0.18734649 0.35819712
0.1662423 0.1094117 0.28578007 0.47314426 0.25358564 0.14399958 0.22477707 0.050263688
0.42604408 0.18148288 0.036536824 0.24565181 0.32628363 0.1708621 0.60689515 0.2384996
0.30101097 0.13872278 0.22522818 0.29183242 0.3577223 0.18926421 0.36192316 0.16742398
0.24853371 0.24796535 0.26069394 0.3620188 0.13171682 0.18776825 0.33624905 0.41492894
0.4054798 0.19013119 0.21935561 0.17533925 0.16538645 0.27127355 0.069647595 0.06915156
0.13681014 0.3560423 0.3079038 0.17919526 0.34185213 0.42446756 0.32712236 0.18416181
0.027585762 0.37697887 0.12200155 0.2601243 0.24427705 0.16036898 0.02726441 0.17165409
00000000: e57a 4c3e f6c5 523e 07c5 303e a80e ae3e
00000010: 35d2 913c 54e3 d83d 3f83 ae3d 299d 1d3e
00000020: 8c6e bc3e fc24 8e3d 68cf 883e 9cb0 973e
00000030: 12eb af3c d797 d23d b1ee a93e 66f3 953e
00000040: 2677 3b3d bab9 9f3e 3072 503e 5a57 e03e
00000050: d57a 823e 9486 243e c008 023f 92a7 633e
00000060: cb74 bf3d ec52 443d d438 723e 98a1 073e
00000070: 55fc 633e ca15 963e af83 af3e d2d2 973e
00000080: c51b 873e ac05 c83e daf8 613d 649e 6f3e
00000090: df7b 983e 09ba 8b3e a284 983d 9cc7 dc3e
000000a0: a484 c13d ecb9 8f3e d698 d43e 2ad6 e63e
000000b0: 92c3 143e 38b9 893e dac8 253d 6003 e93d
000000c0: 877e a43e d5df 933e 5ec4 943e 6075 453e
000000d0: eda0 623e 3e45 083e c09b 993e 3bf3 f53d
000000e0: 41e2 d83e dc96 a13d 4184 2d3e 81f2 223e
000000f0: 75d0 4a3e e091 5a3e 145e ea3e 4e16 253e
00000100: 7758 773e 90fc 243d 297d 363e f3b5 b23e
00000110: f7fe 8e3e bde7 073e 80b5 573e 37eb 903e
00000120: 8342 fa3d 0f63 443e 6457 f33d 44d3 ad3d
00000130: 524e 1f3e e3bd eb3d 0ada d03d 293c 833e
00000140: 3fa3 473e 947e d33e cd8e 9c3e 6a60 1e3e
00000150: b2e8 753c ff10 1a3d 0844 bf3e 47e0 ae3d
00000160: e132 073e 0fa5 6e3d e5e3 ce3e 80c4 de3d
00000170: a33e 923d 9cff 763e 4e63 923d c646 a13e
00000180: adc7 8b3d b325 553d deff 0c3e fdc0 ac3d
00000190: b4da b93e 3559 2d3e 7a6a e33e 04c6 893d
000001a0: 199e 9a3e 3e86 1c3e 9cd1 9d3e 1750 953e
000001b0: 39a9 8c3e c675 e23e 4e9e 503e a221 3e3e
000001c0: 791d 4b3e ed01 8a3e 7d22 573e 1661 4a3e
000001d0: 6295 793e 6459 ae3d bb69 3e3d 1517 493e
000001e0: 6d50 993e 97c4 163d 281f 8f3e 4769 6f3e
000001f0: 0d9f 473e 2d33 1b3e c419 a33e b47b 573e
00000200: bfa0 373e 3ede 8b3e d619 8b3e 469e 573e
00000210: dad5 893e 1b1f 913e d89b 9a3e 8c5c ea3d
00000220: ed86 843e 4c08 123e ec7a a13e e314 b43d
00000230: 16f4 da3d c071 fa3d c2d7 3f3e 9d65 b73e
00000240: 6c3b 2a3e 3e13 e03d c451 923e f73f f23e
00000250: fad5 813e a074 133e f62b 663e 4ce1 4d3d
00000260: 7322 da3e a6d6 393e a3a7 153d 268c 7b3e
00000270: a60e a73e 79f6 2e3e 7b5d 1b3f 3d39 743e
00000280: 1c1e 9a3e 580d 0e3e 37a2 663e 0f6b 953e
00000290: 6127 b73e 7ace 413e fe4d b93e 3171 2b3e
000002a0: 9f7f 7e3e a1ea 7d3e ad79 853e 875a b93e
000002b0: c6e0 063e 5246 403e d628 ac3e 9171 d43e
000002c0: 0c9b cf3e c0b1 423e c29e 603e 228c 333e
000002d0: 115b 293e 5ee4 8a3e 66a3 8e3d 559f 8d3d
000002e0: f517 0c3e 2d4b b63e 91a5 9d3e f67e 373e
000002f0: 3e07 af3e d053 d93e 957c a73e ea94 3c3e
00000300: 89fb e13c 6003 c13e f3db f93d 032f 853e
00000310: c323 7a3e c437 243e 9d59 df3c 17c6 2f3e

running_var f4 [200]
0.11863205 0.14131053 0.09068792 0.17339046 0.0073854052 0.047888692 0.047128197 0.10452081
0.39623442 0.043883625 0.24292254 0.25939465 0.007339605 0.046329815 0.3437864 0.16773386
0.021792827 0.13580984 0.29563153 0.31488818 0.10337185 0.09965255 0.29112428 0.13589612
0.033695593 0.039262597 0.15533285 0.07536793 0.13572256 0.33016193 0.14746837 0.11568644
0.14909916 0.16179605 0.037704814 0.18889375 0.1504133 0.13338774 0.057985276 0.586421
0.061288107 0.26389486 0.58242637 0.17445554 0.059790924 0.1719031 0.021814438 0.04786392
0.39700451 0.2250979 0.1817993 0.084575675 0.13078202 0.06340838 0.26984525 0.097976245
0.17929739 0.03253692 0.1335568 0.095770866 0.16258276 0.08881645 0.25296175 0.122182496
0.13786733 0.026761698 0.122769125 0.14960541 0.1673709 0.098072365 0.093843706 0.14862183
0.060877427 0.11724337 0.05744169 0.040766463 0.13775274 0.094341196 0.057624865 0.17269847
0.14585307 0.19762811 0.20515707 0.053125083 0.0065925727 0.016236851 0.48977983 0.067427635
0.075834356 0.039838713 0.14529625 0.039484337 0.029384268 0.09790637 0.04183566 0.15224375
0.034151234 0.029039277 0.036937185 0.034811966 0.3290609 0.09119966 0.17418537 0.02514869
0.1717239 0.12321981 0.11779981 0.1527572 0.10856125 0.41800785 0.11059443 0.15945752
0.11731368 0.19747452 0.12581863 0.17248406 0.15687916 0.045395814 0.023355408 0.17268482
0.34791034 0.013844031 0.1433968 0.17555135 0.07897967 0.11924901 0.18015665 0.091923
0.10950746 0.21012847 0.17695948 0.13000916 0.09898022 0.22935817 0.2875489 0.052043427
0.10262255 0.08969277 0.33639437 0.036502365 0.080377355 0.09634734 0.10514602 0.24725276
0.16426258 0.076085545 0.13762622 0.21687043 0.16256881 0.08312404 0.07016299 0.020360215
0.211782 0.113817975 0.017252976 0.12969558 0.17933364 0.07377082 0.2148879 0.16720149
0.1715813 0.07696583 0.19841114 0.18397506 0.20582019 0.12970415 0.24765745 0.06683921
0.13492605 0.12536645 0.14996046 0.24953097 0.0968899 0.1635382 0.12287149 0.21998481
0.38263118 0.06447599 0.19393027 0.081302285 0.17658642 0.2621075 0.029642342 0.034260202
0.1009337 0.26274458 0.11943015 0.14635713 0.21475422 0.36348307 0.14587751 0.13176608
0.008989686 0.28429994 0.05461713 0.17235805 0.16609909 0.1435753 0.013147676 0.14991851
00000000: 5cf5 f23d b5b3 103e 97ba b93d 458d 313e
00000010: 4501 f23b ef26 443d 7f09 413d 020f d63d
00000020: 3ddf ca3e 51bf 333d b0c0 783e 60cf 843e
00000030: 1281 f03b 55c4 3d3d c504 b03e 6dc2 2b3e
00000040: df86 b23c bc11 0b3e 045d 973e 0639 a13e
00000050: 9fb4 d33d a316 cc3d 3e0e 953e 5a28 0b3e
00000060: 6404 0a3d d1d1 203d 930f 1f3e 805a 9a3d
00000070: dbfa 0a3e fc0a a93e f301 173e 03ed ec3d
00000080: 73ad 183e ddad 253e 5d70 1a3d 5d6d 413e
00000090: f205 1a3e cc96 083e f881 6d3d b01f 163f
000000a0: 3d09 7b3d 3a1d 873e e519 153f 79a4 323e
000000b0: 54e7 743d 5e07 303e 31b4 b23c f50c 443d
000000c0: 2d44 cb3e 1080 663e 9829 3a3e 0336 ad3d
000000d0: b9eb 053e 41dc 813d 2829 8a3e c5a7 c83d
000000e0: bc99 373e 6f45 053d 1dc3 083e 8423 c43d
000000f0: 187c 263e 66e5 b53d 3484 813e d13a fa3d
00000100: 182d 0d3e 593b db3c 616e fb3d 2932 193e
00000110: 4763 2b3e 2ada c83d 2131 c03d 5230 183e
00000120: 9c5a 793d 4b1d f03d fa47 6b3d bcfa 263d
00000130: 0e0f 0d3e f535 c13d 0d08 6c3d ded7 303e
00000140: 825a 153e 065f 4a3e b214 523e b099 593d
00000150: 8206 d83b 2503 853c 6cc4 fa3e 8017 8a3d
00000160: 0b4f 9b3d eb2d 233d 8ac8 143e 54ba 213d
00000170: 47b7 f03c 2383 c83d de5b 2b3d c9e5 1b3e
00000180: 2ae2 0b3d c7e3 ed3c 724b 173d fe96 0e3d
00000190: ac7a a83e e3c6 ba3d a65d 323e a004 ce3c
000001a0: 64d8 2f3e ab5a fc3d 0741 f13d 626c 1c3e
000001b0: 5c55 de3d 2005 d63e 557f e23d d548 233e
000001c0: 2842 f03d c336 4a3e 99d6 003e a99f 303e
000001d0: eea4 203e f6f0 393d d753 bf3c 4ad4 303e
000001e0: 4e21 b23e 13d2 623c 9cd6 123e bcc3 333e
000001f0: 18c0 a13d d338 f43d fc7a 383e 2042 bc3d
00000200: 7245 e03d eb2b 573e de34 353e 1f21 053e
00000210: 24b6 ca3d dedc 6a3e 9c39 933e 7d2b 553d
00000220: c62b d23d d8b0 b73d e23b ac3e 8183 153d
00000230: e29c a43d c151 c53d cc56 d73d d42f 7d3e
00000240: 7334 283e bdd2 9b3d e3ed 0c3e 4813 5e3e
00000250: 7078 263e f03c aa3d 9db1 8f3d 77ca a63c
00000260: 61dd 583e 6619 e93d 1d56 8d3c ebce 043e
00000270: 3da3 373e 2815 973d 930b 5c3e de36 2b3e
00000280: 02b3 2f3e 43a0 9d3d 4a2c 4b3e f563 3c3e
00000290: 87c2 523e 2ad1 043e ea99 7d3e ffe2 883d
000002a0: 0e2a 0a3e 1060 003e 3c8f 193e 0c85 7f3e
000002b0: 366e c63d 8f76 273e 0ca4 fb3d b343 613e
000002c0: 3ce8 c33e fd0b 843d a895 463e d081 a63d
000002d0: 12d3 343e f432 863e 7fd4 f23c 6d54 0c3d
000002e0: 54b6 ce3d 7586 863e cb97 f43d a5de 153e
000002f0: 88e8 5b3e 741a ba3e ea60 153e b0ed 063e
00000300: 7a49 133c c38f 913e 36b6 5f3d a17e 303e
00000310: e115 2a3e 6705 133e 5a69 573c 3d84 193e

weight f4 [100, 200]
-0.043925617 -0.06597523 0.050708853 0.0122857755 -0.29225326 -0.07289226 -0.4015526 0.19682051
-0.020236611 -0.1975036 0.1290727 0.025748862 -0.055511944 0.13179046 0.028966537 -0.08482336
0.079600506 -0.02695504 0.067342736 0.14080432 -0.306896 -0.1153076 0.059264135 -0.11733322
0.16002853 -0.06783908 -0.008318641 0.00606941 0.015123792 0.09446115 -0.108311996 0.19859156
0.15829323 -0.016708702 -0.042160295 0.12912157 0.022684649 -0.05830469 -0.038840722 0.15562287
0.10703101 0.20714283 0.12812041 -0.03435807 -0.09207652 -0.04360981 0.0069476212 -0.23863643
0.12069424 -0.0043092826 -0.057142265 -0.10893684 -0.16008697 -0.020920236 0.0043975343 -0.020595742
-0.16749631 -0.18218462 -0.06360162 -0.18721898 -0.2989183 -0.023290686 -0.0139079 -0.3961139
-0.07697274 -0.2696121 -0.02582447 -0.26559997 -0.2530133 -0.004894077 0.007784625 -0.05681975
-0.13218346 -0.062847525 -0.009538683 -0.05056033 0.0043361606 0.041950457 -0.16767354 0.099299416
0.07904638 -0.25428814 0.05024526 -0.056046296 0.11302872 -0.1902861 0.15385345 -0.16337995
-0.095401354 -0.22115923 -0.088010445 0.06449402 -0.068489134 -0.3073605 -0.0029669527 -0.10316395
-0.09202218 -0.15849522 0.07769768 -0.030514346 0.22839081 -0.023992987 -0.17432946 -0.045645
-0.20609188 -0.026933555 -0.07085981 0.0027211772 -0.14227805 0.044551954 0.162951 0.13691236
0.014893709 0.061753847 -0.129977 -0.03802656 -0.07644447 0.03556265 -0.009484679 0.060938988
0.14371486 0.03709375 -0.07683474 0.06271362 -0.15576798 -0.063713506 -0.06977481 -0.1323937
0.098716535 -0.014812076 -0.28739086 0.010033396 -0.08365649 0.13360386 0.07470428 -0.1509001
-0.19462618 -0.005213021 0.055533595 0.11454676 -0.018348852 0.10547227 0.1805902 -0.05371848
-0.016525973 0.22914402 0.115394585 -0.08603477 -0.07829767 -0.073769614 0.06605018 -0.13913195
-0.12408734 0.07267504 -0.120387115 -0.06013883 -0.076834425 -0.17382942 -0.05648805 -0.05124265
0.030656124 -0.29526928 0.020389056 -0.007756435 -0.13944547 -0.022173299 0.0835379 -0.11437171
-0.25807515 -0.16769992 -0.017425058 -0.10190963 -0.017576156 0.05862078 -0.09944165 -0.097153604
0.22771683 -0.18196046 0.016170511 0.044114474 -0.09263022 0.09434498 -0.23844142 -0.2799928
-0.15613966 -0.08338378 -0.13465384 0.037875164 -0.054638214 0.032646846 -0.16557312 -0.06701115
0.0062499624 -0.010209323 0.057136543 -0.19626108 0.036459956 -0.017027624 0.09240434 -0.08893189
-0.10372986 -0.01676855 -0.2684096 -0.06469441 0.0043919273 0.0869596 -0.017434774 0.15068433
-0.25268883 0.20123845 0.0509694 -0.39834252 -0.008571814 0.05616836 -0.094904855 -0.12665342
0.12818404 0.03187607 -0.03997599 0.053252447 -0.017177125 -0.13689803 0.11011787 0.0342032
0.026193803 0.041796427 0.26581654 -0.13125639 -0.10420677 -0.0017347314 0.12692633 -0.10865474
0.28866807 0.08863999 -0.046813298 0.026579482 -0.112475894 -0.099186905 -0.21833406 -0.15522654
-0.01949462 -0.07997292 -0.11021087 -0.0662123 -0.12293655 -0.021844778 -0.15035473 -0.008311882
-0.106044695 0.0779485 0.049064904 -0.064590596 -0.006214708 0.07009367 -0.15925363 0.049056258
00000000: 59eb 33bd 051e 87bd 16b4 4f3d 474a 493c
00000010: 38a2 95be 8a48 95bd 4d98 cdbe 518b 493e
00000020: 40c7 a5bc 623e 4abe a22b 043e 47ef d23c
00000030: 7e60 63bd 14f4 063e 3b4b ed3c dfb7 adbd
00000040: 9705 a33d d1d0 dcbc fdea 893d 022f 103e
00000050: 7921 9dbe 6426 ecbd f3be 723d 664c f0bd
00000060: 85de 233e 37ef 8abd e94a 08bc e7e1 c63b
00000070: c8c9 773c d974 c13d aed2 ddbd 965b 4b3e
00000080: 9f17 223e b0e0 88bc 46b0 2cbd 7238 043e
00000090: 28d5 b93c e6d0 6ebd 7317 1fbd 9a5b 1f3e
000000a0: 1333 db3d 401d 543e ff31 033e 0cbb 0cbd
000000b0: 9d92 bcbd 33a0 32bd dfa8 e33b 1c5d 74be
000000c0: 8b2e f73d e234 8dbb 020e 6abd 471a dfbd
000000d0: d7ed 23be ea60 abbc 3119 903b 67b8 a8bc
000000e0: 2784 2bbe 9b8e 3abe 9141 82bd 55b6 3fbe
000000f0: d20b 99be 1ccc bebc f6dd 63bc 71cf cabe
00000100: e2a3 9dbd 990a 8abe d78d d3bc b8fc 87be
00000110: f68a 81be 7e5e a0bb 2b16 ff3b d4bb 68bd
00000120: 1a5b 07be 34b6 80bd 2348 1cbc 5918 4fbd
00000130: 5a16 8e3b 3ed4 2b3d 9db2 2bbe 7e5d cb3d
00000140: 12e3 a13d 0e32 82be f9cd 4d3d cd90 65bd
00000150: 9a7b e73d 5cda 42be c28b 1d3e 134d 27be
00000160: c961 c3bd 9177 62be d23e b4bd 7115 843d
00000170: 0844 8cbd 5b5e 9dbe 3571 42bb 9f47 d3bd
00000180: 2076 bcbd 924c 22be f61f 9f3d 39f9 f9bc
00000190: 48df 693e f18c c4bc 6c83 32be 40f6 3abd
000001a0: c009 53be c2a3 dcbc f31e 91bd c755 323b
000001b0: 56b1 11be 1c7c 363d a0dc 263e c132 0c3e
000001c0: be04 743c 9af1 7c3d b118 05be bdc1 1bbd
000001d0: eb8e 9cbd 24aa 113d a165 1bbc 299b 793d
000001e0: fd29 133e 9eef 173d 885b 9dbd 0070 803d
000001f0: a481 1fbe 3a7c 82bd 18e6 8ebd 3792 07be
00000200: e52b ca3d 5aae 72bc e524 93be 1d63 243c
00000210: 1854 abbd 73cf 083e 8ffe 983d 8e85 1abe
00000220: 164c 47be fdd1 aabb 3277 633d 7e97 ea3d
00000230: 5550 96bc d801 d83d a3ec 383e e907 5cbd
00000240: 7a61 87bc bba4 6a3e ff53 ec3d ff32 b0bd
00000250: 875a a0bd 8614 97bd 5145 873d 9b78 0ebe
00000260: 8121 febd a7d6 943d 858d f6bd 2254 76bd
00000270: 5e5b 9dbd 5700 32be 0360 67bd d0e3 51bd
00000280: 8d22 fb3c 892d 97be f306 a73c b129 febb
00000290: cbca 0ebe c7a4 b5bc eb15 ab3d b73b eabd
000002a0: 6d22 84be 87b9 2bbe ffbe 8ebc ffb5 d0bd
000002b0: dffb 8fbc 581c 703d 10a8 cbbd 78f8 c6bd
000002c0: 9a2e 693e d853 3abe 0578 843c 61b1 343d
000002d0: eab4 bdbd f137 c13d fd29 74be 375b 8fbe
000002e0: 13e3 1fbe 1ec5 aabd b2e2 09be fd22 1b3d
000002f0: 52cc 5fbd b3b8 053d 008c 29be 243d 89bd
00000300: 7ccc cc3b 0145 27bc 0208 6a3d aaf8 48be
00000310: 0957 153d 847d 8bbc 7d3e bd3d ec21 b6bd
00000320: 5270 d4bd 335e 89bc fc6c 89be 817e 84bd
00000330: 28ea 8f3b e017 b23d 5fd3 8ebc fe4c 1a3e
00000340: 6e60 81be 7411 4e3e 4ac5 503d 8df3 cbbe
00000350: cb70 0cbc cb10 663d 7a5d c2bd 6fb1 01be
00000360: ad42 033e 7b90 023d ddbd 23bd 3d1f 5a3d
00000370: 0bb7 8cbc ff2e 0cbe 7a85 e13d a818 0c3d
00000380: 6394 d63c bb32 2b3d 1b19 883e 1368 06be
00000390: 5c6a d5bd ed5f e3ba faf8 013e 6086 debd
000003a0: 4dcc 933e e288 b53d 4dbf 3fbd 37bd d93c
000003b0: c359 e6bd 8122 cbbd f792 5fbe b5f3 1ebe
000003c0: 2eb3 9fbc d8c8 a3bd 3db6 e1bd 509a 87bd
000003d0: 28c6 fbbd d2f3 b2bc 97f6 19be 8f2e 08bc
000003e0: f62d d9bd 77a3 9f3d 48f8 483d 1348 84bd
000003f0: c0a4 cbbb 458d 8f3d 6213 23be 37ef 483d

weight f4 [100]
1.1917578 1.0728947 1.177301 1.0456624 0.9735034 1.264509 1.2338356 0.9562935
0.9579721 1.0293533 1.0757759 0.71335936 1.0258522 1.0152192 1.0933529 1.1381838
1.2492361 1.0883365 0.9918818 1.2383227 1.0106516 1.3053328 0.8904808 0.9510129
0.93469745 1.350147 1.0381217 1.3809334 1.1029757 1.1470132 1.0364312 1.047163
1.3529838 0.9428537 1.0656489 1.139888 1.124795 1.1937326 1.1721133 1.2340649
0.9957847 0.96695435 0.8893841 1.1620749 1.0848255 1.0453154 1.0128273 1.1086433
0.9370227 1.3083613 1.1352191 1.1005627 1.1371933 1.0491809 1.2090014 1.0635849
1.2116344 1.0168784 1.1469439 1.1577294 1.0714538 1.1390551 0.9662005 1.1263158
1.1305418 1.0827925 1.0712779 1.0102998 1.1454514 1.0904158 1.0810926 1.1060995
1.0867215 1.0899835 0.9780782 1.2263359 1.0592571 1.070353 0.94609034 1.0985532
1.3339622 1.1170913 1.1617012 1.1398851 1.373375 0.54026324 1.1213988 0.98851943
1.2058606 1.256556 1.0978202 1.0266894 1.121953 1.1016011 1.0613366 1.0744317
1.2174757 1.1697555 1.177121 1.0674907
00000000: 858b 983f 9d54 893f cdb1 963f 44d8 853f
00000010: 8537 793f 6edb a13f 53ee 9d3f a7cf 743f
00000020: a93d 753f d9c1 833f 06b3 893f b89e 363f
00000030: 204f 833f b4f2 813f fdf2 8b3f 02b0 913f
00000040: f8e6 9f3f 9c4e 8b3f f7eb 7d3f 5c81 9e3f
00000050: 085d 813f 2515 a73f 8df6 633f 9575 733f
00000060: 5548 6f3f 9ed1 ac3f 2ce1 843f 6dc2 b03f
00000070: 4f2e 8d3f 54d1 923f c7a9 843f 7009 863f
00000080: 932e ad3f dc5e 713f 2f67 883f dae7 913f
00000090: 48f9 8f3f 3bcc 983f cf07 963f d7f5 9d3f
000000a0: bfeb 7e3f 528a 773f adae 633f dfbe 943f
000000b0: 90db 8a3f e5cc 853f 53a4 813f 06e8 8d3f
000000c0: b8e0 6f3f 6278 a73f dc4e 913f 3ddf 8c3f
000000d0: 8d8f 913f 8f4b 863f 8fc0 9a3f 8d23 883f
000000e0: d616 9b3f 1229 823f 0fcf 923f 7a30 943f
000000f0: 6625 893f 8fcc 913f ea58 773f 1e2b 903f
00000100: 98b5 903f f298 8a3f a21f 893f 8151 813f
00000110: 279e 923f bf92 8b3f 3e61 8a3f ab94 8d3f
00000120: b119 8b3f 9484 8b3f 5563 7a3f 93f8 9c3f
00000130: bd95 873f 5401 893f fa32 723f 649d 8c3f
00000140: 46bf aa3f d9fc 8e3f a0b2 943f c1e7 913f
00000150: c1ca af3f b14e 0a3f ff89 8f3f 9c0f 7d3f
00000160: a459 9a3f d4d6 a03f 5f85 8c3f 8f6a 833f
00000170: 289c 8f3f 4401 8d3f e1d9 873f fa86 893f
00000180: 3ed6 9b3f 8cba 953f e7ab 963f 89a3 883f

bias f4 [100]
-0.20794995 -0.004341521 0.28110495 -0.28513852 0.020711461 0.29641345 -0.22115566 0.12225906
-0.088481545 0.03647276 0.22011138 0.21780488 0.12054292 0.17497618 -0.20216908 0.013025559
-0.19248489 0.16549532 -0.04068622 0.120122716 0.117968634 -0.028388608 0.123825766 0.12393679
-0.12062767 0.21871418 -0.19550726 0.14068446 0.26591346 -0.107013695 -0.007114622 0.24270345
-0.23644969 0.14765395 -0.17696011 0.17202148 -0.025589127 0.27722973 -0.164214 -0.21850656
-0.2695152 -0.10149309 0.16587453 0.19999757 -0.27871636 -0.16674118 0.15512435 -0.29636043
0.09782344 0.2946695 -0.2849695 -0.23620221 0.20931508 0.1189184 -0.23354441 0.13791159
0.20905064 -0.06044184 -0.12221076 0.23584415 0.16919935 -0.0015287856 0.043556236 -0.1710166
0.08164689 -0.26864058 -0.20150666 0.12950568 -0.22139268 -0.21646866 0.06274695 -0.0043750396
-0.31059507 -0.0007333199 0.17091218 0.18793537 -0.19680499 -0.12645008 0.014771153 -0.14525646
0.29545116 -0.22915158 -0.20926256 -0.23865375 -0.21451505 0.18622337 -0.31812984 0.18833785
0.2598828 0.17210747 -0.02251479 0.074390486 -0.13043016 -0.08343266 0.14106396 0.22514349
0.1576307 -0.20114912 0.15042019 -0.24424218
00000000: d5f0 54be 5143 8ebb fdec 8f3e adfd 91be
00000010: 15ab a93c 81c3 973e a176 62be f562 fa3d
00000020: d035 b5bd 7664 153d e164 613e 3e08 5f3e
00000030: 35df f63d f52c 333e 6905 4fbe 2769 553c
00000040: c21a 45be 9b77 293e 98a6 26bd e602 f63d
00000050: 8a99 f13d 3a8f e8bc 5d98 fd3d 92d2 fd3d
00000060: a40b f7bd 9cf6 5f3e 0e33 48be 960f 103e
00000070: cf25 883e ff29 dbbd c621 e9bb 4187 783e
00000080: de1f 72be 9932 173e 0835 35be 6626 303e
00000090: 4aa0 d1bc 0ef1 8d3e b727 28be 2fc0 5fbe
000000a0: e5fd 89be 9cdb cfbd 03db 293e 2acc 4c3e
000000b0: e9b3 8ebe 33be 2abe ebd8 1e3e 8ebc 97be
000000c0: a857 c83d ecde 963e 86e7 91be fede 71be
000000d0: b156 563e 7d8b f33d 4426 6fbe b238 0d3e
000000e0: 5f11 563e dd91 77bd a349 fabd 2181 713e
000000f0: 9842 2d3e 8861 c8ba 0668 323d fa1e 2fbe
00000100: 7c36 a73d 428b 89be c357 4ebe 239d 043e
00000110: c3b4 62be f6a9 5dbe 7981 803d 7e5c 8fbb
00000120: 5106 9fbe 443c 40ba 9a03 2f3e 2172 403e
00000130: 3f87 49be 217c 01be b502 723c 1cbe 14be
00000140: 6045 973e b6a6 6abe ed48 56be a661 74be
00000150: d5a9 5bbe 57b1 3e3e eae1 a2be a3db 403e
00000160: 5c0f 853e f13c 303e f070 b8bc 0a5a 983d
00000170: 7c8f 05be bede aabd 1273 103e 048c 663e
00000180: f169 213e 09fa 4dbe c007 1a3e 9f1a 7abe

running_mean f4 [100]
1.2443197 2.4668095 3.299685 0.902344 2.8376493 3.2664275 1.882227 2.6807797
2.120965 3.1200793 1.5428894 0.84028256 2.105584 2.85242 1.5504427 1.9774252
1.6834201 1.4609023 2.8280377 2.1553113 2.5537107 1.977246 1.3219681 1.6369762
0.5915924 0.6455971 1.9171724 1.3655763 3.750047 2.2288136 2.3550148 2.703971
0.5412114 2.5911577 1.3615562 2.4404035 3.2047472 1.4570763 0.9764579 1.3426932
1.6078682 3.3847494 2.5778255 2.8932662 1.6113693 0.5972037 1.1445637 1.3557484
1.9013761 1.2335471 0.6695561 1.3396922 2.756752 1.6017747 1.4298753 2.5117407
1.5727448 2.0318198 1.9700165 3.073647 2.9555507 1.5696864 2.960009 1.4201509
3.0539827 1.6652571 0.6248783 1.0539491 0.5082218 2.3280315 2.9681363 1.4389784
0.68052924 0.31837684 3.3021548 0.662289 0.93946517 1.4018804 0.79656047 0.7834542
1.6580429 1.6130295 2.3225248 1.5187461 0.38495114 2.6232877 1.7244053 2.0163996
0.75595236 0.94636774 2.610209 2.7807677 1.4492066 1.1622472 2.8290517 2.4622414
1.625875 0.9089863 3.6158624 1.3803203
00000000: de45 9f3f 35e0 1d40 0a2e 5340 0400 673f
00000010: 0c9c 3540 260d 5140 d0ec f03f e591 2b40
00000020: e4bd 0740 61af 4740 667d c53f c21c 573f
00000030: e3c1 0640 0d8e 3640 e874 c63f 451c fd3f
00000040: 4f7a d73f d9fe ba3f 92fe 3440 9ff0 0940
00000050: ff6f 2340 6616 fd3f 4036 a93f 7088 d13f
00000060: 9972 173f da45 253f e865 f53f 34cb ae3f
00000070: c500 7040 e2a4 0e40 90b8 1640 dc0d 2d40
00000080: d58c 0a3f 87d5 2540 7947 ae3f 922f 1c40
00000090: 941a 4d40 7a81 ba3f 25f9 793f 5fdd ab3f
000000a0: a0ce cd3f bc9f 5840 18fb 2440 462b 3940
000000b0: 5941 ce3f 57e2 183f 1081 923f 2a89 ad3f
000000c0: 4b60 f33f dfe4 9d3f 0768 2b3f 097b ab3f
000000d0: a06e 3040 f406 cd3f 2706 b73f 5cc0 2040
000000e0: b44f c93f 5609 0240 8029 fc3f a2b6 4440
000000f0: be27 3d40 7ceb c83f ca70 3d40 81c7 b53f
00000100: 7474 4340 2527 d53f 06f8 1f3f cee7 863f
00000110: d31a 023f 78fe 1440 f2f5 3d40 7230 b83f
00000120: 2a37 2e3f 4a02 a33e 8156 5340 c68b 293f
00000130: ca80 703f d170 b33f 63eb 4b3f 7490 483f
00000140: c03a d43f c077 ce3f 3fa4 1440 4666 c23f
00000150: 5118 c53e f2e3 2740 50b9 dc3f b10c 0140
00000160: 1886 413f 2845 723f aa0d 2740 19f8 3140
00000170: 9a7f b93f 84c4 943f 2f0f 3540 5d95 1d40
00000180: ac1c d03f 53b3 683f 4a6a 6740 56ae b03f

running_var f4 [100]
5.7288527 7.928106 10.46104 5.007216 10.560643 12.101761 12.97802 8.184303
7.565278 10.439238 7.22327 1.766467 6.1200733 10.157716 8.571054 9.447364
17.690575 4.0804 11.332438 7.959414 8.193246 10.646804 5.1445727 4.559374
1.3026536 2.1358275 9.625795 4.9700522 18.380756 9.856006 5.7021737 16.13555
1.4345791 8.740558 5.9350867 8.344192 12.801227 3.9372554 2.4808996 10.813515
10.908991 11.261419 8.775177 9.648128 12.437219 2.6436594 3.9571753 12.006783
5.105433 4.292772 4.4406857 4.4896774 8.442882 4.7381268 10.336883 11.053829
5.82345 8.492018 9.713484 13.311683 9.920357 6.393544 9.803726 5.2616343
10.971052 12.368255 4.272228 2.8265185 1.1562941 8.273447 13.510102 4.591728
3.593937 1.2040546 12.612987 1.7421435 6.691996 5.4494257 2.2385252 1.9347941
4.2024035 11.920739 10.346022 9.375755 0.76791596 8.14573 12.60478 5.9778004
2.7922788 2.5792687 11.773953 8.695291 5.6305747 7.1790366 10.472407 7.7451267
3.0566845 5.7682767 12.47652 9.454224
00000000: c352 b740 0bb3 fd40 6b60 2741 1d3b a040
00000010: 65f8 2841 d0a0 4141 f8a5 4f41 e8f2 0241
00000020: c216 f240 1e07 2741 0725 e740 971b e23f
00000030: a4d7 c340 0186 2241 0a23 0941 6728 1741
00000040: 4c86 8d41 a392 8240 ab51 3541 85b3 fe40
00000050: 8917 0341 4f59 2a41 57a0 a440 64e6 9140
00000060: 5abd a63f 66b1 0840 4203 1a41 ab0a 9f40
00000070: ca0b 9341 33b2 1d41 3578 b640 9b15 8141
00000080: 4aa0 b73f 53d9 0b41 3bec bd40 cf81 0541
00000090: d3d1 4c41 fefb 7b40 0fc7 1e40 2804 2d41
000000a0: 3a8b 2e41 c62e 3441 2067 0c41 bb5e 1a41
000000b0: d9fe 4641 b731 2940 5c42 7d40 c81b 4041
000000c0: b55f a340 635e 8940 191a 8e40 70ab 8f40
000000d0: 0b16 0741 bc9e 9740 df63 2541 7cdc 3041
000000e0: b459 ba40 4edf 0741 6e6a 1b41 a7fc 5441
000000f0: c8b9 1e41 ea97 cc40 10dc 1c41 4f5f a840
00000100: 6e89 2f41 5fe4 4541 17b6 8840 aee5 3440
00000110: 7201 943f 0a60 0441 6129 5841 70ef 9240
00000120: 1003 6640 761e 9a3f cbce 4941 8ffe de3f
00000130: d524 d640 b261 ae40 ff43 0f40 55a7 f73f
00000140: 177a 8640 59bb 3e41 4e89 2541 1803 1641
00000150: 2496 443f e954 0241 2ead 4941 244a bf40
00000160: b2b4 3240 bd12 2540 1d62 3c41 e91f 0b41
00000170: ab2d b440 abba e540 fb8e 2741 14d8 f740
00000180: b8a0 4340 b995 b840 d39f 4741 8044 1741

weight f4 [9, 100]
0.15073147 0.27208477 0.088750236 0.2354366 -0.24543902 0.06373555 0.13646428 0.099942565
0.099860325 -0.08235719 0.10019017 0.1303272 0.21145277 0.047445342 0.23976348 0.0043182047
0.26097086 0.1869886 -0.14840074 -0.14169563 0.21171221 -0.030904818 0.15974486 0.1478228
0.109250784 0.091484465 0.17182653 0.26657477 0.041434404 -0.01568347 0.09720792 0.04508791
0.092366695 0.1586583 0.07541962 0.15896606 0.23654173 0.13237524 0.1754339 0.18334529
0.13969569 0.30562508 0.053659983 0.2342812 0.1788937 0.2565113 0.2459435 0.2181054
-0.014702256 0.07233739 0.27111557 0.17493308 0.122574225 0.1487094 0.15974642 -0.35025504
0.1255703 -0.0020947128 -0.2045791 0.17610598 0.1744797 0.14574963 -0.09333777 0.19589281
0.23798399 0.16991135 0.28372878 0.07446651 0.15766984 0.14470318 0.0048692683 0.18237941
0.1849805 0.08062243 0.164295 0.120144024 0.19657032 0.09794394 0.014600575 -0.040210467
0.12319629 -0.0037436292 -0.006589759 0.1996831 0.06710112 -0.17955253 0.25518396 0.18282911
0.0058883405 0.045415923 -0.119071245 0.16433972 0.21930158 0.13610835 0.14336498 0.1262172
0.17869239 0.3143075 -0.1693639 0.19759348 0.080585435 0.008810649 -0.402094 0.039982297
0.07466563 -0.43987283 0.12782232 -0.042139973 0.00038365828 0.083788045 -0.124274135 0.0015586453
-0.08439766 -0.25363162 0.20216575 -0.16699518 0.23223858 -0.02862202 0.055600215 0.21753657
-0.0025882418 -0.30424002 0.010242844 -0.014221829 0.16113532 -0.13742729 0.18289037 0.042921476
-0.009098801 0.21612604 -0.21935178 -0.09115124 0.19157454 -0.022713602 -0.14080271 -0.053897515
-0.031616766 0.034790304 0.13422878 0.040933583 0.11973879 -0.039658092 -0.08954163 -0.09176856
0.11457284 0.16419354 -0.010898914 0.11789437 0.14093025 -0.20132923 0.18726164 0.16021909
0.02334106 -0.048097093 0.012252395 0.15595067 0.009773543 -0.14092912 -0.06513013 -0.08979114
-0.29048976 0.1803363 0.06208622 0.16219325 -0.05763292 0.13574058 0.17885093 -0.116039634
0.15475008 -0.15540026 -0.073152505 0.17175776 0.05598323 0.08766109 -0.12810259 -0.24225341
0.06588192 0.20283417 0.08021076 0.07487925 -0.06860902 -0.13295366 -0.041854978 0.1227243
0.24764232 -0.15771815 0.19410452 -0.0466531 -0.11493949 0.24443725 0.20282696 -0.062754326
0.21305189 0.039424714 -0.059390392 -0.040592182 -0.084282875 0.17919964 0.01701084 0.12250177
0.062621124 -0.07458313 0.18787785 -0.0668781 0.2001247 0.17892195 -0.13274708 -0.23478828
-0.11890735 0.17019312 -0.31910378 0.101766504 -0.23893906 0.049795114 0.11996535 -0.15700462
0.07733952 -0.2962721 0.20889255 0.22744775 -0.23722197 -0.08879877 0.03385093 -0.12388728
0.052437145 -0.3642452 -0.005339683 -0.10545956 -0.16065092 0.2473318 0.18501961 -0.23358446
0.14697069 -0.13828667 -0.11218316 -0.20860605 -0.08509309 -0.099833064 0.20308371 -0.33658192
0.088793695 -0.17303734 -0.23064584 -0.20930532 0.054591656 0.04910881 -0.048421875 0.03032333
0.21654472 0.14172646 -0.067802876 0.09114637 -0.15210186 -0.07136059 -0.21943203 0.24510401
00000000: 5a59 1a3e b24e 8b3e afc2 b53d 4b16 713e
00000010: 5e54 7bbe c987 823d 4bbd 0b3e b0ae cc3d
00000020: 9283 cc3d e3aa a8bd 8130 cd3d 7e74 053e
00000030: 1387 583e 0c56 423d 8f84 753e ba7f 8d3b
00000040: f99d 853e f179 3f3e 5df6 17be a918 11be
00000050: 16cb 583e 1a2c fdbc 2894 233e dc5e 173e
00000060: e0be df3d 355c bb3d 4bf3 2f3e 7d7c 883e
00000070: 1fb7 293d 9f7a 80bc f214 c73d 1aae 383d
00000080: c02a bd3d 5277 223e 9a75 9a3d 00c8 223e
00000090: ff37 723e 608d 073e f2a4 333e debe 3b3e
000000a0: 630c 0f3e e47a 9c3e 92ca 5b3d 69e7 6f3e
000000b0: e92f 373e 7355 833e 9dd8 7b3e 0657 5f3e
000000c0: bbe1 70bc a025 943d a9cf 8a3e a821 333e
000000d0: 3208 fb3d 4747 183e 9194 233e a154 b3be
000000e0: 8095 003e 7347 09bb 2f7d 51be 2055 343e
000000f0: ceaa 323e 643f 153e df27 bfbd 2098 483e
00000100: 13b2 733e 3efd 2d3e e644 913e e681 983d
00000110: 3474 213e 122d 143e 628e 9f3b abc1 3a3e
00000120: 876b 3d3e 5f1d a53d f33c 283e 120e f63d
00000130: bb49 493e d596 c83d 4037 6f3c bbb3 24bd
00000140: 564e fc3d ad57 75bb e8ee d7bb ba79 4c3e
00000150: 506c 893d 9edc 37be 79a7 823e 8e37 3b3e
00000160: fbf2 c03b 0c06 3a3d a0db f3bd ac48 283e
00000170: 9890 603e fd5f 0b3e 45ce 123e 153f 013e
00000180: 23fb 363e eaec a03e bb6d 2dbe f255 4a3e
00000190: fa09 a53d 8a5a 103c 44df cdbe 7ac4 233d
000001a0: 4bea 983d 0337 e1be dbe3 023e f79a 2cbd
000001b0: be25 c939 1199 ab3d 7083 febd 754b cc3a
000001c0: aed8 acbd 01dc 81be 8a04 4f3e c900 2bbe
000001d0: f3cf 6d3e ba78 eabc 0dbd 633d e8c1 5e3e
000001e0: 7e9f 29bb 59c5 9bbe 9ad1 273c ad02 69bc
000001f0: a800 253e bdb9 0cbe 9d47 3b3e 6ece 2f3d
00000200: 2313 15bc 2550 5d3e c19d 60be 80ad babd
00000210: 1e2c 443e e011 babc 962e 10be a4c3 5cbd
00000220: 9580 01bd 4780 0e3d 4573 093e f9a9 273d
00000230: 9c39 f53d 8670 22bd 9a61 b7bd 28f1 bbbd
00000240: 2aa5 ea3d 5a22 283e 5c91 32bc 9a72 f13d
00000250: 0550 103e 4029 4ebe 84c1 3f3e 7910 243e
00000260: c035 bf3c 7501 45bd 45be 483c 88b1 1f3e
00000270: 3621 203c b94f 10be f262 85bd 6be4 b7bd
00000280: 13bb 94be 14aa 383e 1f4e 7e3d fd15 263e
00000290: 7f10 6cbd 94ff 0a3e b324 373e 30a6 edbd
000002a0: ce76 1e3e 3f21 1fbe fbd0 95bd 44e1 2f3e
000002b0: ac4e 653d a887 b33d 532d 03be 4711 78be
000002c0: 1aed 863d c3b3 4f3e 8a45 a43d 4b5a 993d
000002d0: e382 8cbd 0125 08be 2070 2bbd e156 fb3d
000002e0: f395 7d3e de80 21be 56c3 463e 5217 3fbd
000002f0: 6565 ebbd c24d 7a3e dfb1 4f3e 5785 80bd
00000300: 462a 5a3e cf7b 213d 5743 73bd fd43 26bd
00000310: 809c acbd 1c80 373e 515a 8b3c 35e2 fa3d
00000320: 813f 803d 0abf 98bd 0d63 403e 63f7 88bd
00000330: 7ded 4c3e 5137 373e daee 07be 576c 70be
00000340: b285 f3bd 1b47 2e3e 9261 a3be f56a d03d
00000350: 71ac 74be f6f5 4b3d 65b0 f53d d2c5 20be
00000360: 2f64 9e3d fab0 97be eee7 553e 10e8 683e
00000370: 51ea 72be 21dc b5bd 46a7 0a3d 9db8 fdbd
00000380: 55c8 563d 597e babe 82f8 aebb 2ffb d7bd
00000390: ad81 24be 8c44 7d3e c875 3d3e c430 6fbe
000003a0: 7c7f 163e 059b 0dbe 49c0 e5bd d39c 55be
000003b0: 4945 aebd 4775 ccbd 2df5 4f3e 7754 acbe
000003c0: 78d9 b53d b330 31be 6c2e 6cbe 2254 56be
000003d0: 809b 5f3d 5226 493d 0456 46bd a268 f83c
000003e0: e6bd 5d3e be20 113e 3cdc 8abd f3aa ba3d
000003f0: 97c0 1bbe 8025 92bd cab2 60be 8cfc 7a3e

bias f4 [9]
-0.15714552 -0.07437254 -0.100751065 0.17969081 0.19926913 0.11473771 -0.0250769 -0.16182902
-0.2986904
00000000: c1ea 20be a150 98bd 9356 cebd de00 383e
00000010: 350d 4c3e 9bfb ea3d 126e cdbc 82b6 25be
00000020: f3ed 98be
